…
Found 112120 images belonging to 12 classes.
Generated data frame with loaded images:  (40000, 19)
Found 112120 images belonging to 12 classes.
Generated data frame with loaded images:  (6000, 19)
Found 112120 images belonging to 12 classes.
Generated data frame with loaded images:  (4000, 19)
Total time taken: 0:00:17.684598!
Data load complete!
(10, 128, 128, 1)
(10, 13)
_________________________________________________________________
Layer (type)                 Output Shape              Param #
=================================================================
dense_1 (Dense)              (None, 128, 128, 16)      32
_________________________________________________________________
dropout_1 (Dropout)          (None, 128, 128, 16)      0
_________________________________________________________________
dense_2 (Dense)              (None, 128, 128, 32)      544
_________________________________________________________________
dropout_2 (Dropout)          (None, 128, 128, 32)      0
_________________________________________________________________
dense_3 (Dense)              (None, 128, 128, 32)      1056
_________________________________________________________________
dropout_3 (Dropout)          (None, 128, 128, 32)      0
_________________________________________________________________
flatten_1 (Flatten)          (None, 524288)            0
_________________________________________________________________
dense_4 (Dense)              (None, 13)                6815757
=================================================================
Total params: 6,817,389
Trainable params: 6,817,389
Non-trainable params: 0
_________________________________________________________________
Started training base MLP model...