…
Found 112120 images belonging to 12 classes.
Generated data frame with loaded images:  (40000, 19)
Found 112120 images belonging to 12 classes.
Generated data frame with loaded images:  (6000, 19)
Found 112120 images belonging to 12 classes.
Generated data frame with loaded images:  (4000, 19)
Total time taken: 0:00:17.677434!
Data load complete!
(10, 128, 128, 3)
(10, 13)
_________________________________________________________________
Layer (type)                 Output Shape              Param #
=================================================================
input_1 (InputLayer)         (None, 128, 128, 3)       0
_________________________________________________________________
block1_conv1 (Conv2D)        (None, 128, 128, 64)      1792
_________________________________________________________________
block1_conv2 (Conv2D)        (None, 128, 128, 64)      36928
_________________________________________________________________
block1_pool (MaxPooling2D)   (None, 64, 64, 64)        0
_________________________________________________________________
block2_conv1 (Conv2D)        (None, 64, 64, 128)       73856
_________________________________________________________________
block2_conv2 (Conv2D)        (None, 64, 64, 128)       147584
_________________________________________________________________
block2_pool (MaxPooling2D)   (None, 32, 32, 128)       0
_________________________________________________________________
block3_conv1 (Conv2D)        (None, 32, 32, 256)       295168
_________________________________________________________________
block3_conv2 (Conv2D)        (None, 32, 32, 256)       590080
_________________________________________________________________
block3_conv3 (Conv2D)        (None, 32, 32, 256)       590080
_________________________________________________________________
block3_conv4 (Conv2D)        (None, 32, 32, 256)       590080
_________________________________________________________________
block3_pool (MaxPooling2D)   (None, 16, 16, 256)       0
_________________________________________________________________
block4_conv1 (Conv2D)        (None, 16, 16, 512)       1180160
_________________________________________________________________
block4_conv2 (Conv2D)        (None, 16, 16, 512)       2359808
_________________________________________________________________
block4_conv3 (Conv2D)        (None, 16, 16, 512)       2359808
_________________________________________________________________
block4_conv4 (Conv2D)        (None, 16, 16, 512)       2359808
_________________________________________________________________
block4_pool (MaxPooling2D)   (None, 8, 8, 512)         0
_________________________________________________________________
block5_conv1 (Conv2D)        (None, 8, 8, 512)         2359808
_________________________________________________________________
block5_conv2 (Conv2D)        (None, 8, 8, 512)         2359808
_________________________________________________________________
block5_conv3 (Conv2D)        (None, 8, 8, 512)         2359808
_________________________________________________________________
block5_conv4 (Conv2D)        (None, 8, 8, 512)         2359808
_________________________________________________________________
block5_pool (MaxPooling2D)   (None, 4, 4, 512)         0
_________________________________________________________________
global_average_pooling2d_1 ( (None, 512)               0
_________________________________________________________________
dropout_1 (Dropout)          (None, 512)               0
_________________________________________________________________
dense_1 (Dense)              (None, 1024)              525312
_________________________________________________________________
batch_normalization_1 (Batch (None, 1024)              4096
_________________________________________________________________
activation_1 (Activation)    (None, 1024)              0
_________________________________________________________________
dropout_2 (Dropout)          (None, 1024)              0
_________________________________________________________________
dense_2 (Dense)              (None, 13)                13325
=================================================================
Total params: 20,567,117
Trainable params: 20,565,069
Non-trainable params: 2,048
_________________________________________________________________
Started training ChestR VGG19 CNN model - all layer...