…
Found 112120 images belonging to 12 classes.
Generated data frame with loaded images:  (40000, 19)
Found 112120 images belonging to 12 classes.
Generated data frame with loaded images:  (6000, 19)
Found 112120 images belonging to 12 classes.
Generated data frame with loaded images:  (4000, 19)
Total time taken: 0:00:17.840943!
Data load complete!
(10, 128, 128, 1)
(10, 13)
_________________________________________________________________
Layer (type)                 Output Shape              Param #
=================================================================
conv2d_1 (Conv2D)            (None, 128, 128, 64)      320
_________________________________________________________________
conv2d_2 (Conv2D)            (None, 128, 128, 64)      16448
_________________________________________________________________
max_pooling2d_1 (MaxPooling2 (None, 64, 64, 64)        0
_________________________________________________________________
conv2d_3 (Conv2D)            (None, 64, 64, 128)       32896
_________________________________________________________________
conv2d_4 (Conv2D)            (None, 64, 64, 128)       65664
_________________________________________________________________
max_pooling2d_2 (MaxPooling2 (None, 32, 32, 128)       0
_________________________________________________________________
dropout_1 (Dropout)          (None, 32, 32, 128)       0
_________________________________________________________________
conv2d_5 (Conv2D)            (None, 32, 32, 256)       131328
_________________________________________________________________
max_pooling2d_3 (MaxPooling2 (None, 16, 16, 256)       0
_________________________________________________________________
conv2d_6 (Conv2D)            (None, 16, 16, 256)       262400
_________________________________________________________________
global_average_pooling2d_1 ( (None, 256)               0
_________________________________________________________________
dense_1 (Dense)              (None, 512)               131584
_________________________________________________________________
dropout_2 (Dropout)          (None, 512)               0
_________________________________________________________________
dense_2 (Dense)              (None, 13)                6669
=================================================================
Total params: 647,309
Trainable params: 647,309
Non-trainable params: 0
_________________________________________________________________
Started training ChestR CNN model...